…
    "In this example, we generate a summary of the trained `.h5` model file in the [image_example1](../../docs/python_api/models/examples/image_example1.md) model's [model archive](../../docs/guides/model_archive.md)."

   ]

  },

  {

   "cell_type": "code",

   "execution_count": 3,

   "metadata": {},

   "outputs": [

    {

     "name": "stdout",

     "output_type": "stream",

     "text": [

      "Model: \"image_example1\"\n",

      "_________________________________________________________________\n",

      "Layer (type)                 Output Shape              Param #   \n",

      "=================================================================\n",

      "conv2d (Conv2D)              (None, 48, 48, 24)        240       \n",

      "_________________________________________________________________\n",

      "average_pooling2d (AveragePo (None, 24, 24, 24)        0         \n",

      "_________________________________________________________________\n",

      "conv2d_1 (Conv2D)            (None, 11, 11, 16)        3472      \n",

      "_________________________________________________________________\n",

      "conv2d_2 (Conv2D)            (None, 9, 9, 24)          3480      \n",

      "_________________________________________________________________\n",

      "batch_normalization (BatchNo (None, 9, 9, 24)          96        \n",

      "_________________________________________________________________\n",

      "activation (Activation)      (None, 9, 9, 24)          0         \n",

      "_________________________________________________________________\n",

      "average_pooling2d_1 (Average (None, 4, 4, 24)          0         \n",

      "_________________________________________________________________\n",

      "flatten (Flatten)            (None, 384)               0         \n",

      "_________________________________________________________________\n",

      "dense (Dense)                (None, 3)                 1155      \n",

      "_________________________________________________________________\n",

      "activation_1 (Activation)    (None, 3)                 0         \n",

      "=================================================================\n",

      "Total params: 8,443\n",

      "Trainable params: 8,395\n",

      "Non-trainable params: 48\n",

      "_________________________________________________________________\n",

      "\n",

      "Total MACs: 1.197 M\n",

      "Total OPs: 2.528 M\n",

      "Name: image_example1\n",

      "Version: 1\n",
…
