…
      "File C:/Users/reed/.mltk/datasets/rock_paper_scissors/v2/_unknown_/2022-05-02T17-55-00.359.jpg not found in existing index, re-generating index\n",

      "File C:/Users/reed/.mltk/datasets/rock_paper_scissors/v2/paper/2022-04-29T23-06-01.204.jpg not found in existing index, re-generating index\n",

      "Model: \"sequential\"\n",

      "_________________________________________________________________\n",

      " Layer (type)                Output Shape              Param #   \n",

      "=================================================================\n",

      " conv2d (Conv2D)             (None, 82, 82, 16)        160       \n",

      "                                                                 \n",

      " activation (Activation)     (None, 82, 82, 16)        0         \n",

      "                                                                 \n",

      " max_pooling2d (MaxPooling2D  (None, 41, 41, 16)       0         \n",

      " )                                                               \n",

      "                                                                 \n",

      " conv2d_1 (Conv2D)           (None, 39, 39, 16)        2320      \n",

      "                                                                 \n",

      " activation_1 (Activation)   (None, 39, 39, 16)        0         \n",

      "                                                                 \n",

      " max_pooling2d_1 (MaxPooling  (None, 19, 19, 16)       0         \n",

      " 2D)                                                             \n",

      "                                                                 \n",

      " conv2d_2 (Conv2D)           (None, 17, 17, 32)        4640      \n",

      "                                                                 \n",

      " activation_2 (Activation)   (None, 17, 17, 32)        0         \n",

      "                                                                 \n",

      " max_pooling2d_2 (MaxPooling  (None, 8, 8, 32)         0         \n",

      " 2D)                                                             \n",

      "                                                                 \n",

      " flatten (Flatten)           (None, 2048)              0         \n",

      "                                                                 \n",

      " dense (Dense)               (None, 32)                65568     \n",

      "                                                                 \n",

      " activation_3 (Activation)   (None, 32)                0         \n",

      "                                                                 \n",

      " dropout (Dropout)           (None, 32)                0         \n",

      "                                                                 \n",

      " dense_1 (Dense)             (None, 4)                 132       \n",

      "                                                                 \n",

      "=================================================================\n",

      "Total params: 72,820\n",

      "Trainable params: 72,820\n",

      "Non-trainable params: 0\n",

      "_________________________________________________________________\n",

      "\n",

      "Total MACs: 5.870 M\n",

      "Total OPs: 12.303 M\n",
…
