…
     "text": [

      "\n",

      "Epoch 1: LearningRateScheduler setting learning rate to 0.001.\n",

      "\n",

      "Epoch 2: LearningRateScheduler setting learning rate to 0.00095.\n",

      "\n",

      "Epoch 3: LearningRateScheduler setting learning rate to 0.0009025.\n",

      "Model: \"keyword_spotting_on_off\"\n",

      "_________________________________________________________________\n",

      " Layer (type)                Output Shape              Param #   \n",

      "=================================================================\n",

      " conv2d (Conv2D)             (None, 25, 16, 8)         80        \n",

      "                                                                 \n",

      " batch_normalization (BatchN  (None, 25, 16, 8)        32        \n",

      " ormalization)                                                   \n",

      "                                                                 \n",

      " activation (Activation)     (None, 25, 16, 8)         0         \n",

      "                                                                 \n",

      " conv2d_1 (Conv2D)           (None, 13, 8, 16)         1168      \n",

      "                                                                 \n",

      " batch_normalization_1 (Batc  (None, 13, 8, 16)        64        \n",

      " hNormalization)                                                 \n",

      "                                                                 \n",

      " activation_1 (Activation)   (None, 13, 8, 16)         0         \n",

      "                                                                 \n",

      " dropout (Dropout)           (None, 13, 8, 16)         0         \n",

      "                                                                 \n",

      " conv2d_2 (Conv2D)           (None, 7, 4, 32)          4640      \n",

      "                                                                 \n",

      " batch_normalization_2 (Batc  (None, 7, 4, 32)         128       \n",

      " hNormalization)                                                 \n",

      "                                                                 \n",

      " activation_2 (Activation)   (None, 7, 4, 32)          0         \n",

      "                                                                 \n",

      " dropout_1 (Dropout)         (None, 7, 4, 32)          0         \n",

      "                                                                 \n",

      " max_pooling2d (MaxPooling2D  (None, 1, 4, 32)         0         \n",

      " )                                                               \n",

      "                                                                 \n",

      " flatten (Flatten)           (None, 128)               0         \n",

      "                                                                 \n",

      " dense (Dense)               (None, 4)                 516       \n",

      "                                                                 \n",

      "=================================================================\n",

      "Total params: 6,628\n",

      "Trainable params: 6,516\n",

      "Non-trainable params: 112\n",

      "_________________________________________________________________\n",

      "\n",

      "Total MACs: 278.144 k\n",

      "Total OPs: 574.468 k\n",
…
